…
2021-04-27 15:24:18,274 - main.py[line:64] - INFO: - evaluate: False
2021-04-27 15:24:18,274 - main.py[line:64] - INFO: - snapshot_pref: ./checkpoint/
2021-04-27 15:24:18,274 - main.py[line:64] - INFO: - start_epoch: 0
2021-04-27 15:24:18,274 - main.py[line:64] - INFO: - gpus: None
2021-04-27 15:24:18,274 - main.py[line:64] - INFO: - flow_prefix: 
2021-04-27 15:24:18,274 - main.py[line:64] - INFO: - rgb_prefix: 
2021-04-27 15:24:18,274 - main.py[line:65] - INFO: ------------------------------------
2021-04-27 15:24:23,580 - main.py[line:119] - INFO: DataParallel(
  (module): TSN(
    (base_model): ECO(
      (conv1_7x7_s2): Conv2d(3, 64, kernel_size=(7, 7), stride=(2, 2), padding=(3, 3))
      (conv1_7x7_s2_bn): BatchNorm2d(64, eps=1e-05, momentum=0.1, affine=True, track_running_stats=True)
      (conv1_relu_7x7): ReLU(inplace=True)
      (pool1_3x3_s2): MaxPool2d(kernel_size=3, stride=2, padding=0, dilation=1, ceil_mode=True)
      (conv2_3x3_reduce): Conv2d(64, 64, kernel_size=(1, 1), stride=(1, 1))
      (conv2_3x3_reduce_bn): BatchNorm2d(64, eps=1e-05, momentum=0.1, affine=True, track_running_stats=True)
      (conv2_relu_3x3_reduce): ReLU(inplace=True)
      (conv2_3x3): Conv2d(64, 192, kernel_size=(3, 3), stride=(1, 1), padding=(1, 1))
      (conv2_3x3_bn): BatchNorm2d(192, eps=1e-05, momentum=0.1, affine=True, track_running_stats=True)
      (conv2_relu_3x3): ReLU(inplace=True)
      (pool2_3x3_s2): MaxPool2d(kernel_size=3, stride=2, padding=0, dilation=1, ceil_mode=True)
      (inception_3a_1x1): Conv2d(192, 64, kernel_size=(1, 1), stride=(1, 1))
      (inception_3a_1x1_bn): BatchNorm2d(64, eps=1e-05, momentum=0.1, affine=True, track_running_stats=True)
      (inception_3a_relu_1x1): ReLU(inplace=True)
      (inception_3a_3x3_reduce): Conv2d(192, 64, kernel_size=(1, 1), stride=(1, 1))
      (inception_3a_3x3_reduce_bn): BatchNorm2d(64, eps=1e-05, momentum=0.1, affine=True, track_running_stats=True)
      (inception_3a_relu_3x3_reduce): ReLU(inplace=True)
      (inception_3a_3x3): Conv2d(64, 64, kernel_size=(3, 3), stride=(1, 1), padding=(1, 1))
      (inception_3a_3x3_bn): BatchNorm2d(64, eps=1e-05, momentum=0.1, affine=True, track_running_stats=True)
      (inception_3a_relu_3x3): ReLU(inplace=True)
      (inception_3a_double_3x3_reduce): Conv2d(192, 64, kernel_size=(1, 1), stride=(1, 1))
      (inception_3a_double_3x3_reduce_bn): BatchNorm2d(64, eps=1e-05, momentum=0.1, affine=True, track_running_stats=True)
      (inception_3a_relu_double_3x3_reduce): ReLU(inplace=True)
      (inception_3a_double_3x3_1): Conv2d(64, 96, kernel_size=(3, 3), stride=(1, 1), padding=(1, 1))
      (inception_3a_double_3x3_1_bn): BatchNorm2d(96, eps=1e-05, momentum=0.1, affine=True, track_running_stats=True)
      (inception_3a_relu_double_3x3_1): ReLU(inplace=True)
      (inception_3a_double_3x3_2): Conv2d(96, 96, kernel_size=(3, 3), stride=(1, 1), padding=(1, 1))
      (inception_3a_double_3x3_2_bn): BatchNorm2d(96, eps=1e-05, momentum=0.1, affine=True, track_running_stats=True)
      (inception_3a_relu_double_3x3_2): ReLU(inplace=True)
      (inception_3a_pool): AvgPool2d(kernel_size=3, stride=1, padding=1)
      (inception_3a_pool_proj): Conv2d(192, 32, kernel_size=(1, 1), stride=(1, 1))
      (inception_3a_pool_proj_bn): BatchNorm2d(32, eps=1e-05, momentum=0.1, affine=True, track_running_stats=True)
      (inception_3a_relu_pool_proj): ReLU(inplace=True)
      (inception_3b_1x1): Conv2d(256, 64, kernel_size=(1, 1), stride=(1, 1))
      (inception_3b_1x1_bn): BatchNorm2d(64, eps=1e-05, momentum=0.1, affine=True, track_running_stats=True)
      (inception_3b_relu_1x1): ReLU(inplace=True)
      (inception_3b_3x3_reduce): Conv2d(256, 64, kernel_size=(1, 1), stride=(1, 1))
      (inception_3b_3x3_reduce_bn): BatchNorm2d(64, eps=1e-05, momentum=0.1, affine=True, track_running_stats=True)
      (inception_3b_relu_3x3_reduce): ReLU(inplace=True)
      (inception_3b_3x3): Conv2d(64, 96, kernel_size=(3, 3), stride=(1, 1), padding=(1, 1))
      (inception_3b_3x3_bn): BatchNorm2d(96, eps=1e-05, momentum=0.1, affine=True, track_running_stats=True)
      (inception_3b_relu_3x3): ReLU(inplace=True)
      (inception_3b_double_3x3_reduce): Conv2d(256, 64, kernel_size=(1, 1), stride=(1, 1))
      (inception_3b_double_3x3_reduce_bn): BatchNorm2d(64, eps=1e-05, momentum=0.1, affine=True, track_running_stats=True)
      (inception_3b_relu_double_3x3_reduce): ReLU(inplace=True)
      (inception_3b_double_3x3_1): Conv2d(64, 96, kernel_size=(3, 3), stride=(1, 1), padding=(1, 1))
      (inception_3b_double_3x3_1_bn): BatchNorm2d(96, eps=1e-05, momentum=0.1, affine=True, track_running_stats=True)
      (inception_3b_relu_double_3x3_1): ReLU(inplace=True)
      (inception_3b_double_3x3_2): Conv2d(96, 96, kernel_size=(3, 3), stride=(1, 1), padding=(1, 1))
      (inception_3b_double_3x3_2_bn): BatchNorm2d(96, eps=1e-05, momentum=0.1, affine=True, track_running_stats=True)
      (inception_3b_relu_double_3x3_2): ReLU(inplace=True)
      (inception_3b_pool): AvgPool2d(kernel_size=3, stride=1, padding=1)
      (inception_3b_pool_proj): Conv2d(256, 64, kernel_size=(1, 1), stride=(1, 1))
      (inception_3b_pool_proj_bn): BatchNorm2d(64, eps=1e-05, momentum=0.1, affine=True, track_running_stats=True)
      (inception_3b_relu_pool_proj): ReLU(inplace=True)
      (inception_3c_double_3x3_reduce): Conv2d(320, 64, kernel_size=(1, 1), stride=(1, 1))
      (inception_3c_double_3x3_reduce_bn): BatchNorm2d(64, eps=1e-05, momentum=0.1, affine=True, track_running_stats=True)
      (inception_3c_relu_double_3x3_reduce): ReLU(inplace=True)
      (inception_3c_double_3x3_1): Conv2d(64, 96, kernel_size=(3, 3), stride=(1, 1), padding=(1, 1))
      (inception_3c_double_3x3_1_bn): BatchNorm2d(96, eps=1e-05, momentum=0.1, affine=True, track_running_stats=True)
      (inception_3c_relu_double_3x3_1): ReLU(inplace=True)
      (res3a_2): Conv3d(96, 128, kernel_size=(3, 3, 3), stride=(1, 1, 1), padding=(1, 1, 1))
      (res3a_bn): BatchNorm3d(128, eps=1e-05, momentum=0.1, affine=True, track_running_stats=True)
      (res3a_relu): ReLU(inplace=True)
      (res3b_1): Conv3d(128, 128, kernel_size=(3, 3, 3), stride=(1, 1, 1), padding=(1, 1, 1))
      (res3b_1_bn): BatchNorm3d(128, eps=1e-05, momentum=0.1, affine=True, track_running_stats=True)
      (res3b_1_relu): ReLU(inplace=True)
      (res3b_2): Conv3d(128, 128, kernel_size=(3, 3, 3), stride=(1, 1, 1), padding=(1, 1, 1))
      (res3b_bn): BatchNorm3d(128, eps=1e-05, momentum=0.1, affine=True, track_running_stats=True)
      (res3b_relu): ReLU(inplace=True)
      (res4a_1): Conv3d(128, 256, kernel_size=(3, 3, 3), stride=(2, 2, 2), padding=(1, 1, 1))
      (res4a_1_bn): BatchNorm3d(256, eps=1e-05, momentum=0.1, affine=True, track_running_stats=True)
      (res4a_1_relu): ReLU(inplace=True)
      (res4a_2): Conv3d(256, 256, kernel_size=(3, 3, 3), stride=(1, 1, 1), padding=(1, 1, 1))
      (res4a_down): Conv3d(128, 256, kernel_size=(3, 3, 3), stride=(2, 2, 2), padding=(1, 1, 1))
      (res4a_bn): BatchNorm3d(256, eps=1e-05, momentum=0.1, affine=True, track_running_stats=True)
      (res4a_relu): ReLU(inplace=True)
      (res4b_1): Conv3d(256, 256, kernel_size=(3, 3, 3), stride=(1, 1, 1), padding=(1, 1, 1))
      (res4b_1_bn): BatchNorm3d(256, eps=1e-05, momentum=0.1, affine=True, track_running_stats=True)
      (res4b_1_relu): ReLU(inplace=True)
      (res4b_2): Conv3d(256, 256, kernel_size=(3, 3, 3), stride=(1, 1, 1), padding=(1, 1, 1))
      (res4b_bn): BatchNorm3d(256, eps=1e-05, momentum=0.1, affine=True, track_running_stats=True)
      (res4b_relu): ReLU(inplace=True)
      (res5a_1): Conv3d(256, 512, kernel_size=(3, 3, 3), stride=(2, 2, 2), padding=(1, 1, 1))
      (res5a_1_bn): BatchNorm3d(512, eps=1e-05, momentum=0.1, affine=True, track_running_stats=True)
      (res5a_1_relu): ReLU(inplace=True)
      (res5a_2): Conv3d(512, 512, kernel_size=(3, 3, 3), stride=(1, 1, 1), padding=(1, 1, 1))
      (res5a_down): Conv3d(256, 512, kernel_size=(3, 3, 3), stride=(2, 2, 2), padding=(1, 1, 1))
      (res5a_bn): BatchNorm3d(512, eps=1e-05, momentum=0.1, affine=True, track_running_stats=True)
      (res5a_relu): ReLU(inplace=True)
      (res5b_1): Conv3d(512, 512, kernel_size=(3, 3, 3), stride=(1, 1, 1), padding=(1, 1, 1))
      (res5b_1_bn): BatchNorm3d(512, eps=1e-05, momentum=0.1, affine=True, track_running_stats=True)
      (res5b_1_relu): ReLU(inplace=True)
      (res5b_2): Conv3d(512, 512, kernel_size=(3, 3, 3), stride=(1, 1, 1), padding=(1, 1, 1))
      (res5b_bn): BatchNorm3d(512, eps=1e-05, momentum=0.1, affine=True, track_running_stats=True)
      (res5b_relu): ReLU(inplace=True)
      (global_pool): AvgPool3d(kernel_size=(2, 7, 7), stride=1, padding=0)
      (fc_final): Dropout(p=0.6, inplace=False)
    )
    (new_fc): Linear(in_features=512, out_features=12, bias=True)
    (consensus): ConsensusModule()
  )
)
2021-04-27 15:24:23,587 - main.py[line:120] - INFO: finetune
2021-04-27 15:24:23,587 - main.py[line:322] - INFO: ./model/ECO_Lite_rgb_model_Kinetics.pth.tar
2021-04-27 15:24:23,587 - main.py[line:323] - INFO: 88888888888888888888888888888888888888888888888888888888888888888888888888888888
2021-04-27 15:24:23,671 - main.py[line:326] - INFO: => loading model-finetune: './model/ECO_Lite_rgb_model_Kinetics.pth.tar'
…
